Assets/Brains/BrainBlub.onnx (onnx, 83762 bytes, 7 tensors)

network_body._body_endoder.seq_layers.0.weight f4 [128, 28]
0.08507043 0.47317168 0.2828417 -0.4176675 0.13547656 0.118132904 0.02212366 -0.03044737
0.31216922 0.053931735 -0.13823953 0.047571156 0.12418471 0.22900979 -0.106091075 0.19202487
0.31545368 0.04264286 -0.2705134 -0.24957138 0.12540507 -0.11951782 0.4039577 -0.2340442
0.034080643 -0.2084565 0.103812404 0.23870696 0.11306216 0.19987126 -0.2021524 0.1911137
-0.3463618 -0.047904044 -0.04379843 0.047474906 -0.27850726 -0.0012086506 -0.14726172 -0.15388079
-0.00965906 0.02384853 -0.14263734 0.1261343 0.09993597 0.10610843 0.0831268 -0.38582712
0.14945504 -0.29519963 -0.091702424 -0.031661596 0.32330725 0.017834885 -0.22365564 -0.2279709
0.35843247 0.1503767 0.024640732 0.08935718 0.106164835 -0.1748073 0.57985806 -0.024355931
0.33786526 -0.33507782 0.09027995 -0.031730853 0.14703119 -0.2777453 -0.15150455 0.32114607
-0.16879877 -0.0641222 -0.19094023 -0.05888937 -0.2033427 0.019809706 0.086567186 0.017368674
0.10584682 0.16394988 0.087318756 0.13529532 -0.05747133 0.15586856 0.021124227 0.5613931
-0.18225333 -0.038043194 -0.0025162897 0.1279337 0.0123771 0.068235606 0.108624846 0.021459073
-0.043620963 -0.21966037 -0.18603635 -0.23600304 0.18142875 -0.2882966 -0.0363866 -0.2584662
-0.08277745 -0.05656484 0.062193498 0.019903159 -0.014997105 0.062455136 -0.14095631 0.18696308
0.08367208 0.31113943 0.2712252 0.4597682 -0.19584286 0.09997822 0.2869914 0.01810724
0.07903493 -0.21559739 0.331192 -0.2695448 -0.33054966 0.18055439 -0.05671218 0.08137465
0.23245311 -0.51781213 -0.0667017 -0.24132183 -0.041544624 -0.19580883 0.15607034 0.16930212
0.10658644 0.02664231 -0.4441498 0.024971774 -0.14001098 -0.31622365 0.051725242 0.22100255
0.26944378 0.42283842 0.16496825 0.19922683 -0.02616557 0.24238749 0.033026062 0.112996496
0.21583019 -0.04255575 -0.15142529 0.14993511 0.29245833 -0.40854716 -0.31052896 -0.10436402
0.20581858 -0.2653483 -0.05831662 -0.07983446 -0.018511208 -0.22829686 0.12744392 0.20990667
-0.44571188 0.4376185 0.14923741 -0.34340826 0.42850724 -0.052457266 -0.09277245 0.16011511
-0.09147368 -0.15485382 -0.15114015 -0.21352111 -0.04894904 -0.28454214 0.24632794 0.18221693
0.051400416 0.07414992 0.069519185 -0.16357777 0.05805805 -0.023743398 0.06567889 -0.24921049
-0.09123408 0.2546255 0.14869721 -0.15139066 0.31913155 0.083905555 -0.10019638 0.13634762
0.17783557 -0.2198282 0.03808208 0.051147707 0.054786354 0.100063555 -0.03119291 0.09729644
-0.012035264 0.0044780103 -0.03889261 -0.017521217 0.014936795 0.10645243 0.033697702 0.056604806
0.29576185 -0.29079327 0.060881734 -0.09747326 0.036021806 0.025472565 -0.17570266 0.064305834
-0.048671916 0.11622329 -0.17618984 -0.41059074 -0.058069147 -0.07238593 0.38895532 -0.008784365
-0.010316774 -0.071153045 0.35569754 0.06332353 -0.18850097 0.13665847 -0.19213992 0.0039923196
-0.1430553 -0.28327262 -0.15935138 -0.0327551 0.08965145 0.13847694 -0.1432516 0.27429843
-0.24847642 -0.1588223 0.048735276 0.1622312 -0.06629314 -0.16499144 -0.22323819 -0.28385654
00000000: 6839 ae3d 8f43 f23e a1d0 903e 84d8 d5be
00000010: 5eba 0a3e aaef f13d ae3c b53c c36c f9bc
00000020: a5d4 9f3e 86e7 5c3d aa8e 0dbe f9d9 423d
00000030: 8e54 fe3d 8b81 6a3e 4746 d9bd 2ba2 443e
00000040: 2583 a13e 48aa 2e3d bb80 8abe a48f 7fbe
00000050: 306a 003e c2c5 f4bd 8bd3 ce3e 48a9 6fbe
00000060: 2598 0b3d 9f75 55be 999b d43d 996f 743e
00000070: 228d e73d 0dab 4c3e 0a01 4fbe 4fb3 433e
00000080: 5556 b1be 0837 44bd fc65 33bd 0c75 423d
00000090: 8198 8ebe 966b 9eba c7cb 16be ed92 1dbe
000000a0: 0941 1ebc fe5d c33c 860f 12be 5a29 013e
000000b0: 3bab cc3d 604f d93d 623e aa3d 228b c5be
000000c0: be0a 193e 6824 97be 7bce bbbd 97af 01bd
000000d0: 8788 a53e 771a 923c fc05 65be 3471 69be
000000e0: 7684 b73e 5afc 193e 5cdb c93c e600 b73d
000000f0: f36c d93d af00 33be 9471 143f 1786 c7bc
00000100: adfc ac3e 528f abbe b2e4 b83d 36f8 01bd
00000110: 588f 163e a234 8ebe 0224 1bbe 426d a43e
00000120: 96d9 2cbe 8052 83bd d685 43be fb35 71bd
00000130: 1239 50be f747 a23c 234a b13d c048 8e3c
00000140: 38c6 d83d 7ae2 273e 2dd4 b23d db8a 0a3e
00000150: 0f67 6bbd 029c 1f3e b70c ad3c 75b7 0f3f
00000160: 9ea0 3abe 2ed3 1bbd 56e8 24bb 0d01 033e
00000170: 52c9 4a3c 1cbf 8b3d b476 de3d f0ca af3c
00000180: e5ab 32bd a6ee 60be 5080 3ebe c8aa 71be
00000190: 75c8 393e 9d9b 93be 1e0a 15bd af55 84be
000001a0: 3987 a9bd 89b0 67bd 9cbe 7e3d f30b a33c
000001b0: 6bb6 75bc f5d0 7f3d da56 10be 4073 3f3e
000001c0: 445c ab3d ab4d 9f3e 08de 8a3e bd66 eb3e
000001d0: 088b 48be 62c1 cc3d 89f0 923e a255 943c
000001e0: 11dd a13d 90c5 5cbe ff91 a93e c701 8abe
000001f0: ce3d a9be 40e3 383e 084b 68bd c1a7 a63d
00000200: 3008 6e3e 568f 04bf e79a 88bd 121d 77be
00000210: b22a 2abd 1c82 48be e7d0 1f3e 895d 2d3e
00000220: fe49 da3d f940 da3c 9a67 e3be 9b91 cc3c
00000230: 0a5f 0fbe 11e8 a1be d9dd 533d 7e4e 623e
00000240: 89f4 893e 477e d83e 70ed 283e 1e02 4c3e
00000250: 2d59 d6bc 6d34 783e 5646 073d b56a e73d
00000260: 9702 5d3e f04e 2ebd 3b0f 1bbe 9788 193e
00000270: 19bd 953e 182d d1be a7fd 9ebe cebc d5bd
00000280: 1bc2 523e bbdb 87be 68dd 6ebd 4080 a3bd
00000290: d1a4 97bc a7c6 69be a980 023e c6f1 563e
000002a0: 5934 e4be 880f e03e b1d1 183e 35d3 afbe
000002b0: 4d65 db3e 6edd 56bd 7bff bdbd 37f5 233e
000002c0: 8e56 bbbd 0092 1ebe 7cc4 1abe 47a5 5abe
000002d0: ca7e 48bd 82af 91be 643d 7c3e 1397 3a3e
000002e0: 3e89 523d eadb 973d 1360 8e3d ee80 27be
000002f0: 47ce 6d3d 8481 c2bc a782 863d 0931 7fbe
00000300: efd8 babd 465e 823e 1544 183e 2706 1bbe
00000310: 3665 a33e add6 ab3d c233 cdbd b69e 0b3e
00000320: 871a 363e a51a 61be f5fb 1b3d 4280 513d
00000330: a867 603d 1fee cc3d 4688 ffbc 5b43 c73d
00000340: 8e2f 45bc 46bc 923b dc4d 1fbd a888 8fbc
00000350: 76b9 743c bb03 da3d 9a06 0a3d 71da 673d
00000360: 196e 973e dbe2 94be 205f 793d 0fa0 c7bd
00000370: 9a8b 133d d7ab d03c 66eb 33be c7b2 833d
00000380: 345c 47bd 7a06 ee3d 1c6b 34be f338 d2be
00000390: ead9 6dbd 133f 94bd 2725 c73e 4cec 0fbc
000003a0: b007 29bc b0b8 91bd fd1d b63e c4af 813d
000003b0: 6606 41be 33f0 0b3e 54c0 44be 01d2 823b
000003c0: 177d 12be 1c09 91be 022d 23be 362a 06bd
000003d0: 2e9b b73d e6cc 0d3e 8cb0 12be d870 8c3e
000003e0: 9a70 7ebe 50a2 22be a49e 473d f01f 263e
000003f0: b3c4 87bd 84f3 28be 8d98 64be a555 91be

network_body._body_endoder.seq_layers.0.bias f4 [128]
-0.010856271 -0.00057912554 -0.0028555929 -0.0056573614 -0.0050645913 0.012026948 -0.0022879597 -0.006020538
0.0072270175 0.010787463 0.0047980417 -0.005040157 0.008744818 -0.014060092 0.008971701 -0.012666818
-0.011332765 0.0018453478 0.015647424 0.003316268 -0.0033891108 -7.4426425e-05 0.0012884955 0.009071254
-0.008208267 0.0039156317 0.011290779 -0.0016732265 -0.003980163 -0.0024871407 -0.008742939 0.011505684
-0.010391441 -0.0026016417 -0.0029678948 -0.011201676 -0.014900443 0.010411212 0.009645239 -0.0019178765
0.0034857825 0.017126841 -0.0008066312 -0.00026666533 0.008555673 0.011457696 -0.0063199745 -0.0061110626
0.01776282 -0.000101271115 -0.003050102 0.0016315205 0.0004063525 -0.0046842317 -0.021102713 0.018260457
0.0044044545 -0.009052215 -0.0013307498 0.0012883734 -0.010001835 -0.0060861297 -0.0065724975 -0.00490635
-0.0008431495 -0.0012199983 0.020865679 0.016761778 -0.0024850436 -0.010821246 0.013994987 -0.007521444
-0.012138269 -0.003787367 0.0020542599 0.021241022 0.018985502 -0.006720534 0.0073066032 -0.0074567767
0.0014825612 0.0052183587 -0.009583572 0.0055498895 0.016835824 0.0014931058 0.005655463 -0.010992613
0.00682846 0.004263373 -0.008238784 0.015432896 -0.009190504 -0.0024363587 0.011931794 0.0004429279
0.013303785 0.006154667 0.0062700114 0.0070862332 0.018221175 -0.0031571547 3.6423808e-06 0.004811459
-0.0034576338 -0.009923472 -0.00010669654 -0.012236732 -0.0104744565 0.011695886 -0.0026418888 0.0058836457
-0.009558279 -0.02726807 0.017547352 -0.00036301024 0.003135623 0.014389473 -0.0014275155 -0.013687722
0.016022762 -0.0005524155 -0.0045713754 -0.010751389 -0.014706337 0.015369259 0.008002906 0.000109400266
00000000: 80de 31bc 75d0 17ba e624 3bbb 6361 b9bb
00000010: dff4 a5bb ad0c 453c 98f1 15bb ef47 c5bb
00000020: 9ed0 ec3b e6bd 303c e438 9d3b e727 a5bb
00000030: 6d46 0f3c 4d5c 66bc 0bfe 123c 7c88 4fbc
00000040: 10ad 39bc 99df f13a 072f 803c bf55 593b
00000050: d81b 5ebb 6215 9cb8 bce2 a83a 999f 143c
00000060: f87b 06bc b34e 803b f6fc 383c 2a50 dbba
00000070: 076c 82bb 4cff 22bb 8b3e 0fbc 5682 3c3c
00000080: dd40 2abc 4e80 2abb 0381 42bb 3c87 37bc
00000090: fd20 74bc ca93 2a3c 1107 1e3c 4261 fbba
000000a0: ba71 643b 974d 8c3c 1a74 53ba 37cf 8bb9
000000b0: 182d 0c3c 0fb9 3b3c ca17 cfbb 4f3f c8bb
000000c0: 5583 913c 8461 d4b8 38e4 47bb bed8 d53a
000000d0: b60b d539 2f7e 99bb 99df acbc f496 953c
000000e0: 3e53 903b be4f 14bc 8e6c aeba a3de a83a
000000f0: bdde 23bc 286e c7bb 1b5e d7bb 72c5 a0bb
00000100: ce06 5dba 5ae8 9fba 80ee aa3c ff4f 893c
00000110: 1ddc 22bb 984b 31bc 3b4b 653c 7276 f6bb
00000120: 97df 46bc 7935 78bb c3a0 063b a701 ae3c
00000130: 7c87 9b3c ed37 dcbb 3b6c ef3b fa57 f4bb
00000140: 8052 c23a c4fe aa3b 6a04 1dbc d9db b53b
00000150: 48eb 893c 51b4 c33a 7651 b93b 5c1a 34bc
00000160: 46c1 df3b c4b3 8b3b f7fb 06bc 42da 7c3c
00000170: c593 16bc 51ab 1fbb 927d 433c c738 e839
00000180: 1ef8 593c 17ad c93b ab74 cd3b a233 e83b
00000190: 9344 953c 44e8 4ebb a06f 7436 72a9 9d3b
000001a0: 7899 62bb 0f96 22bc 45c2 dfb8 937c 48bc
000001b0: 0e9d 2bbc 1aa0 3f3c 8a23 2dbb 99cb c03b
000001c0: 549a 1cbc 4a61 dfbc 77bf 8f3c 6952 beb9
000001d0: 067f 4d3b d3c1 6b3c 791b bbba 7842 60bc
000001e0: 2b42 833c facf 10ba 7acb 95bb 9826 30bc
000001f0: d9f2 70bc 58cf 7b3c 9f1e 033c d26d e538

network_body._body_endoder.seq_layers.2.weight f4 [128, 128]
-0.076879784 -0.113068424 -0.004701321 0.055280674 0.03375238 -0.048461523 -0.052741103 -0.016718937
0.024675595 0.022332817 -0.02509316 0.09091753 -0.07031787 -0.10997966 -0.10401509 0.08864711
-0.14029548 -0.0004619721 -0.09482957 0.073266916 -0.032560498 0.019411504 0.16437341 0.058016
0.067487374 0.07820196 0.0006188211 0.058438186 -0.062656425 0.10237329 0.15316056 -0.0029974016
-0.1634196 0.11653731 0.039389115 -0.092895046 -0.040279534 0.08626396 0.16691707 0.019131294
0.001342026 0.024335211 0.14475524 0.10887467 -0.12077633 -0.019196317 -0.072585955 -0.030502638
-0.12693892 -0.17589298 0.1280744 0.0809513 0.036434617 -0.03774789 0.029963758 -0.073321834
-0.089807324 -0.0465852 -0.11111806 0.0009074839 -0.013075675 0.01819635 0.028333312 -0.021876665
-0.043267485 0.100328736 -0.029824909 0.027172329 -0.0113844825 0.13680774 -0.012973198 -0.05997315
-0.08432318 -0.17715484 0.036967907 -0.14156146 0.116053335 0.04842933 0.13320759 0.029784348
0.02034934 0.087503776 0.10266478 -0.011557149 -0.025673501 -0.04339368 0.1073539 -0.0006770818
0.021756489 0.16176394 0.10865528 -0.12840794 0.0854831 0.15489031 0.07552606 0.12104338
-0.16765922 0.07308713 0.05115424 -0.013552313 0.03352412 0.0026255199 -0.053764496 -0.06102999
-0.015440783 -0.13067761 -0.1488888 -0.029640311 -0.11154844 0.12306853 0.010600368 -0.0040163724
0.011181077 0.016369378 0.007015297 -0.10861384 0.054583814 -0.16710779 0.026418356 -0.073198505
0.00086149824 0.10250273 -0.008435309 0.0008843303 0.06725708 -0.09867833 -0.19413358 0.029843425
0.003909168 0.059279304 -0.07601608 0.078231655 0.086334616 -0.041157275 -0.017069247 0.08204572
0.0072847595 0.07207294 0.045699745 0.08817987 0.0761769 0.18890846 -0.12106835 0.15518278
-0.051981293 -0.043816917 -0.07225846 0.036283933 0.16691254 -0.101781026 0.0127732605 0.04715845
-0.023673572 -0.117426075 -0.033532906 -0.017238189 -0.17207476 -0.09896641 0.12336255 0.13500011
0.16353628 0.12029765 0.061508104 0.16501595 0.13050269 0.023357531 0.08069035 -0.1346668
0.1940333 -0.043713927 0.10363699 -0.03066912 -0.12539442 -0.019056592 0.026512368 -0.062250815
0.05906132 0.114452764 -0.0704655 0.12677483 -0.10338511 -0.031040477 0.14201371 -0.097443245
0.109494075 0.036317818 -0.10385198 -0.08861898 -0.0023025586 0.17915472 -0.065102726 -0.0038296469
-0.022870544 -0.023821734 -0.009715451 -0.051395997 0.035036262 -0.048372 -0.13176943 0.037412453
0.08832394 0.1124468 0.033886127 0.045338362 0.12678908 -0.06819133 0.12340955 0.15402786
0.076333754 -0.0071138055 -0.056205083 -0.0055600223 -0.11654903 0.17234704 0.08490701 0.08888313
-0.0977872 -0.045090012 -0.054768045 -0.058389664 0.028087823 0.02227905 0.006415911 0.030686054
0.14228596 0.105247855 0.052708022 -0.1252174 -0.07336332 0.023895685 0.00169946 -0.2012027
-0.026689224 -0.040831026 0.12152566 0.060016304 0.04072168 -0.13677028 0.09098592 -0.0017316712
-0.112478144 0.084420964 0.12668237 -0.14464013 0.03114769 0.029609982 0.09636265 -0.046332624
-0.15326859 0.04848105 0.019137196 -0.054450672 0.025305362 0.06736992 0.07445187 0.017778046
00000000: 2673 9dbd 6b90 e7bd 8a0d 9abb fd6d 623d
00000010: f03f 0a3d 977f 46bd 0e07 58bd 27f6 88bc
00000020: 7924 ca3c 50f3 b63c 2c90 cdbc f832 ba3d
00000030: d102 90bd 043d e1bd dd05 d5bd 9e8c b53d
00000040: 9ea9 0fbe d834 f2b9 0136 c2bd f70c 963d
00000050: 285e 05bd e004 9f3c 8151 283e 2fa2 6d3d
00000060: d236 8a3d 5928 a03d 6238 223a e15c 6f3d
00000070: 0352 80bd 16a9 d13d 1fd6 1c3e 0e70 44bb
00000080: 7857 27be 1dab ee3d 7b56 213d c23f bebd
00000090: 27fc 24bd 29ab b03d 4fec 2a3e 3bb9 9c3c
000000a0: ece6 af3a a35a c73c b83a 143e aff9 de3d
000000b0: 9559 f7bd 9841 9dbc f2a7 94bd abe0 f9bc
000000c0: 47fc 01be 4a1d 34be ef25 033e ccc9 a53d
000000d0: 773c 153d 889d 1abd 8e76 f53c c229 96bd
000000e0: e7ec b7bd 1fd0 3ebd de91 e3bd 37e4 6d3a
000000f0: 5b3b 56bc 8310 953c 431b e83c b136 b3bc
00000100: 3f39 31bd 2779 cd3d 5e53 f4bc 8198 de3c
00000110: fb85 3abc 5417 0c3e 898d 54bc 68a6 75bd
00000120: a2b1 acbd 1468 35be a96b 173d 7df5 10be
00000130: 5fad ed3d d55d 463d 9267 083e 4efe f33c
00000140: a9b3 a63c 2e35 b33d ea41 d23d 325a 3dbc
00000150: 3c51 d2bc 92bd 31bd 5ddc db3d 317e 31ba
00000160: aa3a b23c 72a5 253e a986 de3d 5f7d 03be
00000170: c311 af3d 919b 1e3e 68ad 9a3d 97e5 f73d
00000180: dcae 2bbe b5ae 953d 1c87 513d 850a 5ebc
00000190: 9650 093d ea10 2c3b 2938 5cbd 95fa 79bd
000001a0: 57fb 7cbc 5ad0 05be 4e76 18be 3dd0 f2bc
000001b0: 8273 e4bd 5a0b fc3d 2aad 2d3c c69b 83bb
000001c0: d630 373c 1319 863c 94e0 e53b ef70 debd
000001d0: 4793 5f3d 4e1e 2bbe 4f6b d83c 19e9 95bd
000001e0: 2bd6 613a f4ec d13d 4034 0abc 67d2 673a
000001f0: 14be 893d dd17 cabd f4ca 46be 337a f43c
00000200: 7a18 803b dbce 723d 52ae 9bbd eb37 a03d
00000210: 34d0 b03d 8894 28bd ced4 8bbc 9607 a83d
00000220: feb4 ee3b fa9a 933d a82f 3b3d a697 b43d
00000230: a202 9c3d 3871 413e aff2 f7bd 3ce8 1e3e
00000240: 56ea 54bd 5e79 33bd 3efc 93bd 769e 143d
00000250: 1feb 2a3e 9272 d0bd f046 513c 3829 413d
00000260: 14ef c1bc 157d f0bd cd59 09bd 1a37 8dbc
00000270: 5e34 30be e7ae cabd 81a5 fc3d 783d 0a3e
00000280: 0e76 273e 9d5e f63d ecef 7b3d f1f9 283e
00000290: 7fa2 053e 4b58 bf3c fb40 a53d 18e6 09be
000002a0: aab0 463e 600d 33bd a13f d43d ce3d fbbc
000002b0: 6567 00be 921c 9cbc 7730 d93c b6fa 7ebd
000002c0: 48ea 713d 3666 ea3d 3750 90bd 43d1 013e
000002d0: 93bb d3bd 9948 febc 0b6c 113e 5390 c7bd
000002e0: 6e3e e03d fec1 143d 59b0 d4bd de7d b5bd
000002f0: 86e6 16bb 5674 373e 9454 85bd d0fa 7abb
00000300: 025b bbbc cc25 c3bc 8e2d 1fbc 9c84 52bd
00000310: 2f82 0f3d b821 46bd 91ee 06be cd3d 193d
00000320: 2fe3 b43d 824a e63d 2ecc 0a3d b8b4 393d
00000330: ffd4 013e e5a7 8bbd 25be fc3d 7bb9 1d3e
00000340: df54 9c3d ed1a e9bb 4d37 66bd d930 b6bb
00000350: 42b1 eebd be7b 303e bae3 ad3d 5c08 b63d
00000360: a844 c8bd 4eb0 38bd 7554 60bd 002a 6fbd
00000370: 6f18 e63c 8e82 b63c 903c d23b 5261 fb3c
00000380: 69b3 113e 308c d73d 5ee4 573d fd38 00be
00000390: 823f 96bd e2c0 c33c 6ac0 de3a 1508 4ebe
000003a0: 5ca3 dabc 6f3e 27bd 72e2 f83d a8d3 753d
000003b0: c7cb 263d 820d 0cbe d356 ba3d 3ef9 e2ba
000003c0: f15a e6bd e6e4 ac3d 06b9 013e 8b1c 14be
000003d0: 7129 ff3c a290 f23c c859 c53d 47c7 3dbd
000003e0: 71f2 1cbe 1194 463d 9cc5 9c3c ab07 5fbd
000003f0: 314d cf3c 3ef9 893d 397a 983d 44a3 913c

network_body._body_endoder.seq_layers.2.bias f4 [128]
-0.0077073085 -0.0073360484 0.0152059635 0.016686043 0.010253658 -0.008256713 -0.010453426 -0.007177917
-0.005104888 -0.008087215 -0.0063129794 -0.006668162 0.0050320863 -0.0062707546 -0.006834506 0.011404379
-0.008259406 0.012432007 -0.007104179 -0.0108295735 0.015280362 -0.007239616 0.00059090543 0.018176286
0.008119342 0.010153118 0.012579015 0.019474845 0.011823832 0.003185636 0.007835216 0.012334939
0.008864726 0.0002677784 -0.008330447 -0.008008344 0.012985626 -0.0003668997 0.0033525515 0.0015256084
0.01574436 -0.0054099862 0.008814466 0.009764903 -0.011574245 -0.0032356211 -0.003676384 -0.0042609167
-0.017325753 -0.006330595 -0.0016981052 0.005755373 -0.0036884202 0.010479974 -0.008935153 0.012948993
-0.0001366362 0.014296385 0.00015496396 0.006314878 0.0067311074 0.00949715 -0.0042917817 0.0050011794
0.00532505 -0.0057882806 0.008921875 0.011569334 0.0014524794 0.0010460288 -0.001336568 0.0014410181
-0.008914028 0.013788883 -0.00434827 -0.007567983 -0.009293846 -0.009103834 -0.0055103214 -0.0047728536
0.010360176 0.0025599843 -0.0063898503 0.0014457036 0.013342052 0.0143492855 0.007998091 0.0016366354
-0.008020848 -0.011434889 -0.0018881292 0.0097836675 -0.011812563 -0.004173405 -0.0045139855 0.006645401
-0.009176616 -0.007956384 0.009011871 -0.00529092 0.009086412 -0.0063725323 0.0020113406 -0.0016075952
0.011753831 0.0067551117 0.0064388956 0.015498923 0.017974831 -0.0076615037 0.0047796043 0.0069458513
-0.003247548 0.007268411 0.012411982 0.007268852 0.010792524 -0.0018535014 0.018151507 0.010784066
0.015461058 0.0063511287 0.010723112 -0.00798425 -0.004791814 0.0046663485 0.013034966 -0.00034092524
00000000: 978d fcbb 3c63 f0bb 6f22 793c 2bb1 883c
00000010: f5fe 273c 2a47 07bc d944 2bbc bb34 ebbb
00000020: e846 a7bb 3d80 04bc 1cdd cebb 9980 dabb
00000030: 33e4 a43b e77a cdbb fef3 dfbb 6fd9 3a3c
00000040: 7652 07bc 9eaf 4b3c 2cca e8bb 866e 31bc
00000050: 7c5a 7a3c 4d3a edbb fee6 1a3a 6fe6 943c
00000060: fd06 053c 4359 263c 3718 4e3c b689 9f3c
00000070: bfb8 413c 1ac6 503b 475f 003c 7c18 4a3c
00000080: 5b3d 113c 9c64 8c39 6d7c 08bc 6e35 03bc
00000090: aac1 543c 725c c0b9 7bb6 5b3b ecf6 c73a
000000a0: 51fa 803c 4146 b1bb 8d6a 103c f9fc 1f3c
000000b0: e7a1 3dbc b70c 54bb 7def 70bb 299f 8bbb
000000c0: bdee 8dbc e170 cfbb f592 deba 9197 bc3b
000000d0: 6cb9 71bb 32b4 2b3c bf64 12bc 0328 543c
000000e0: 0046 0fb9 633b 6a3c d27d 2239 09ed ce3b
000000f0: 9f90 dc3b ef99 1b3c 13a2 8cbb efe0 a33b
00000100: c27d ae3b 9eab bdbb 0e2d 123c 4e8d 3d3c
00000110: 1f61 be3a e71a 893a c82f afba 8be0 bc3a
00000120: 250c 12bc c4ea 613c ef7b 8ebb d8fc f7bb
00000130: 3745 18bc 3f28 15bc ed8f b4bb 9965 9cbb
00000140: babd 293c 69c5 273b f361 d1bb c37d bd3a
00000150: 9f98 5a3c 4419 6b3c 6d0a 033c 5f84 d63a
00000160: e069 03bc 6759 3bbc 1a7b f7ba ad4b 203c
00000170: 7b89 41bc 0fc1 88bb 0eea 93bb aac1 d93b
00000180: 8459 16bc 7e5b 02bc 87a6 133c 745f adbb
00000190: 2ddf 143c add0 d0bb b2d0 033b f2b5 d2ba
000001a0: 2493 403c fc59 dd3b 5ffd d23b 32ef 7d3c
000001b0: f43f 933c 5a0d fbbb 3a9e 9c3b 069a e33b
000001c0: d0d4 54bb da2b ee3b a05b 4b3c 8d2f ee3b
000001d0: 20d3 303c 30f1 f2ba 78b2 943c a7af 303c
000001e0: 6150 7d3c 211d d03b feaf 2f3c 5fd0 02bc
000001f0: a604 9dbb 2be8 983b 9c90 553c 36be b2b9

action_model._continuous_distribution.log_sigma f4 [1, 2]
0.039733008 0.017381586
00000000: 14bf 223d d463 8e3c

action_model._continuous_distribution.mu.weight f4 [2, 128]
0.035722114 0.030502357 -0.012339625 -0.04374712 -0.0067447973 0.027809914 0.02480301 0.018672276
0.02129012 0.035904437 0.010787094 0.015372573 -6.828766e-05 0.023021992 0.022220204 -0.017353691
0.03664753 -0.010185503 0.013008604 0.028921194 -0.03571168 0.029366415 -0.016930236 -0.062240086
-0.01761878 -0.028651211 -0.020829357 -0.02406478 -0.039845932 0.005227127 -0.008220012 -0.02470502
-0.022200111 -0.019458888 0.021197377 0.013785968 -0.055654194 -0.0054069255 -0.010507363 -0.0145259565
-0.026437521 0.008893749 -0.008232573 -0.026620144 0.028522 0.040489167 0.042495698 0.00721789
0.021637645 0.03539167 -0.005173509 -0.012550408 0.026577935 -0.03611457 0.014890801 -0.03324389
-0.01860335 -0.042694174 -0.014011049 -0.022304863 0.003548934 -0.019014431 0.009137627 -0.010423749
0.0037626366 0.006008896 -0.044050947 -0.020995084 0.021758998 -0.027173243 -0.0049486915 0.005082711
0.02396297 -0.015709085 0.006271364 0.009967645 0.007974665 0.022420742 0.03914566 0.0392254
-0.03437369 -0.018074742 0.010894811 -0.037134588 -0.026161833 -0.015633743 -0.007876009 -0.017224494
0.0017998203 0.016472254 -0.000577823 -0.045566864 0.024875121 0.0005135735 0.019836452 -0.008482361
0.033795785 0.045106273 -0.02902991 0.02415695 -0.022597698 0.05024631 -0.015386128 -0.008924564
-0.018651137 -0.022083389 0.0074155116 -0.061328523 -0.015241358 0.01165017 0.005204588 -0.009609061
-0.001747824 -0.012000323 -0.015026528 -0.021038825 -0.0075417818 -0.009128821 -0.020056864 -0.014211657
-0.02703524 -0.014547524 -0.015871884 0.038215183 0.038226746 -0.012352094 -0.020641139 0.004064227
0.018991178 0.03156535 -0.028177343 -0.0024555386 -0.019640332 -0.004494809 0.00361786 0.026998803
-0.008486201 0.0069898157 0.044250764 0.042510446 -0.035652824 0.009197214 0.0051073516 -0.003624118
0.02750908 -0.019999072 0.011866692 0.0037465447 -0.0026813357 -0.0044647725 0.031253263 -0.011796914
-0.028950946 -0.0052213697 -0.01058498 -0.0057185534 -0.009744784 -0.023670679 -0.010820506 -0.018050551
-0.00500069 0.045102093 0.013701142 0.026633834 -0.011198818 0.023411058 0.016294677 0.0021190092
-0.016818536 -0.0015822012 -0.008554005 0.0085326 -0.0006904557 -0.03194382 -0.015379465 0.02363251
0.0042055915 -0.019512352 0.025759595 -0.007385442 -0.02735002 -0.0007928486 0.026494741 -0.010926933
0.03912667 -0.02790773 0.018740414 0.013797926 -0.027257333 0.0013280326 0.001953901 -0.01933693
-0.014774918 0.018558243 0.010068394 -0.006219911 -0.043623205 0.04037989 0.05480608 -0.021960005
0.020408822 -0.012292944 0.024034614 0.047603868 0.027705446 0.008526751 -0.00033781325 -0.0036030277
-0.019005083 -0.007722766 -0.0018219991 0.06283102 -0.026633916 -0.0035538857 -0.039461516 0.021203797
0.028869733 0.008205057 0.017646007 -0.0037591173 0.01072602 0.035490748 0.034080107 -0.026546353
0.038567014 0.038326837 0.0078106727 -0.01675662 0.004663245 0.0057671745 0.0152884545 0.01675795
-0.036941893 0.0073734713 -0.033109296 -0.0056772605 -0.018728975 0.036944013 -0.06311776 -0.002812851
0.02974929 -0.0018151839 -0.025166588 -0.009394375 -0.016733024 0.025882425 -0.0102548925 -0.031157639
0.0028766284 0.0054790033 -0.003225968 0.005519654 -0.024695192 0.00636365 -0.02263649 0.0023053766
00000000: 5a51 123d 14e0 f93c 232c 4abc 2e30 33bd
00000010: 7603 ddbb 9ed1 e33c af2f cb3c 9af6 983c
00000020: 9e68 ae3c 8810 133d 5abc 303c 3fdd 7b3c
00000030: a935 8fb8 9e98 bc3c 2507 b63c 5429 8ebc
00000040: b81b 163d 19e1 26bc 0a22 553c 24ec ec3c
00000050: 6946 12bd d691 f03c 47b1 8abc 76ef 7ebd
00000060: 4255 90bc f2b5 eabc 54a2 aabc 8023 c5bc
00000070: 7d35 23bd 5248 ab3b 3bad 06bc 2f62 cabc
00000080: 02dd b5bc 3f68 9fbc 1fa6 ad3c 8ade 613c
00000090: a7f5 63bd 942c b1bb 1327 2cbc 47fe 6dbc
000000a0: 8093 d8bc 16b7 113c eae1 06bc 7d12 dabc
000000b0: f8a6 e93c f8d7 253d f80f 2e3d 0d84 ec3b
000000c0: 6e41 b13c dbf6 103d 8a86 a9bb 3aa0 4dbc
000000d0: f8b9 d93c dfec 13bd 8cf8 733c bf2a 08bd
000000e0: 0d66 98bc 16e0 2ebd 998e 65bc b0b8 b6bc
000000f0: 3b95 683b 27c4 9bbc fcb5 153c 5fc8 2abc
00000100: 9196 763b 46e6 c43b c46e 34bd e2fd abbc
00000110: ed3f b23c 6c9a debc a228 a2bb df8c a63b
00000120: fe4d c43c 57b0 80bc 0480 cd3b 554f 233c
00000130: 2ba8 023c b4ab b73c 3357 203d d0aa 203d
00000140: 6dcb 0cbd 7b11 94bc 2680 323c 701a 18bd
00000150: 5751 d6bc 5612 80bc 600a 01bc 621a 8dbc
00000160: f3e7 eb3a d2f0 863c 0c79 17ba 52a4 3abd
00000170: e9c6 cb3c 56a1 063a 0e80 a23c 9af9 0abc
00000180: 736d 0a3d 5bc1 383d 22d0 edbc cce4 c53c
00000190: cf1e b9bc 13cf 4d3d 1916 7cbc 5638 12bc
000001a0: 45ca 98bc 39e8 b4bc d2fd f23b 9e33 7bbd
000001b0: e4b6 79bc 5be0 3e3c 408b aa3b 536f 1dbc
000001c0: 3e17 e5ba 019d 44bc d431 76bc 9d59 acbc
000001d0: 0d21 f7bb 0d91 15bc 4b4e a4bc 03d8 68bc
000001e0: 0279 ddbc bd58 6ebc c105 82bc 8687 1c3d
000001f0: a693 1c3d 7060 4abc 9b17 a9bc 352d 853b
00000200: 6393 9b3c ab4a 013d 2cd4 e6bc 1aed 20bb
00000210: c3e4 a0bc 3149 93bb 9e19 6d3b 982c dd3c
00000220: b509 0bbc d30a e53b 4a40 353d 6f1f 2e3d
00000230: b208 12bd e9af 163c 925b a73b 9c82 6dbb
00000240: b95a e13c 18d5 a3bc 846c 423c 9788 753b
00000250: 59b9 2fbb 3a4d 92bb 6c03 003d d847 41bc
00000260: 892a edbc 0618 abbb a06c 2dbc b462 bbbb
00000270: 96a8 1fbc 03e9 c1bc 7e48 31bc c0de 93bc
00000280: d4dc a3bb f9bc 383d c17a 603c 332f da3c
00000290: 3f7b 37bc 8cc8 bf3c 6a7c 853c 13df 0a3b
000002a0: 07c7 89bc dd61 cfba 1926 0cbc 51cc 0b3c
000002b0: b3ff 34ba 86d7 02bd 27fa 7bbc f798 c13c
000002c0: 0fcf 893b 5ed8 9fbc c905 d33c 9401 f2bb
000002d0: 260d e0bc 2bd7 4fba 800b d93c e106 33bc
000002e0: 4a43 203d c09e e4bc 7f85 993c b210 623c
000002f0: c54a dfbc 6111 ae3a 050d 003b 7b68 9ebc
00000300: 7f12 72bc 7507 983c e8f5 243c 65d0 cbbb
00000310: 3fae 32bd 6265 253d 577c 603d 78e5 b3bc
00000320: 6730 a73c 5868 49bc 3de4 c43c 46fc 423d
00000330: 88f6 e23c c9b3 0b3c 871c b1b9 c620 6cbb
00000340: 8cb0 9bbc 420f fdbb 25d0 eeba 8dad 803d
00000350: 5f2f dabc 4fe8 68bb 66a2 21bd 96b3 ad3c
00000360: 3880 ec3c 816e 063c 5c8e 903c 865b 76bb
00000370: 30bc 2f3c bf5e 113d 9597 0b3d bd77 d9bc
00000380: 72f8 1d3d 9afc 1c3d acf0 ff3b 2e45 89bc
00000390: 22ce 983b 91fa bc3b 6d7c 7a3c f847 893c
000003a0: 6250 17bd 299d f13b 9d9d 07bd 5008 babb
000003b0: 826d 99bc 9b52 173d e243 81bd cf57 38bb
000003c0: c8b4 f33c 77eb edba 292a cebc ddea 19bc
000003d0: b213 89bc 6107 d43c 2304 28bc 4e3e ffbc
000003e0: d185 3c3b 3689 b33b c36a 53bb 37de b43b
000003f0: 924d cabc 2a86 d03b 2970 b9bc cd15 173b

action_model._continuous_distribution.mu.bias f4 [2]
-0.008585639 -0.0060386485
00000000: c8aa 0cbc dbdf c5bb
