Assets/Brains/BrainBlob.onnx (onnx, 83762 bytes, 7 tensors)

network_body._body_endoder.seq_layers.0.weight f4 [128, 28]
00000000: a765 0a3e 08a6 5a3e 3352 1cbe 191a ad3a
00000010: 3512 4e3e 801c 423e 39ee 06bd e52c 39be
00000020: f400 89be 23af 6bbe 58bb 3abe 5a6b 333e
00000030: d6a8 973b 407f aebe 97ff 993e 16b7 893e
00000040: ace2 f93c 1368 5d3e 7dbb cbbd ed3e 3bbe
00000050: a0cf 94be cfe4 d4bd e990 45be e73f 9ebd
00000060: e1f6 74be 10b3 bc3d 6000 b5be 5925 dbbc
00000070: bbf0 0fbd 20ae 45be 8725 813d 560c ad3d
00000080: 4893 0ebe 64d8 413d 930d 6cbd c80b 86be
00000090: 76e1 e6bd 4aeb d9bd 72fd eebd 5c6a a73e
000000a0: aef6 80bd 273e 72be b414 043e 646d 2abe
000000b0: 34d4 35be 25c0 913d 56fd 9b3d 348d f03d
000000c0: 60dc f73e 94a6 46be 2c1c 903d ff9d 73bd
000000d0: d12b 83be 8442 99bd f1f0 5c3e 24af d4bd
000000e0: efa7 91be 9937 04be 4943 8f3e 64ca 633e
000000f0: 3001 c1bc 354b 1abe dfe5 24be dca1 8d3c
00000100: 2fac 873d 6996 9b3c e019 203e a5e4 71bd
00000110: 7791 d53e ffca c9bd 50e7 2cbe 17bd 45be
00000120: 4338 8c3e b0f4 60be 1e64 b03d 5753 cc3d
00000130: f51d c3bd 35b8 49bd 04f1 c23d fef0 0dbe
00000140: 7113 acbe 1170 f7bd 87d6 52bd 334a 52be
00000150: 5a13 61be 0615 a5be 407a 543e 2bdf 133d
00000160: 50eb 94bd 5219 9dbd ae9c a2bd 4294 183f
00000170: 918c 553e 3e58 47bd 17ea a0be d390 d63e
00000180: d50a 56be a996 2a3d d47e 0ebe 3b0a 4fbe
00000190: 89bf 25be 7cd7 843e 38e3 fa3d 94a6 f6bd
000001a0: f438 873e 537d 82be bc3f ff3e 7e1d 61bd
000001b0: 75cf 2a3e 3616 dabd 89c3 87be 41c5 423e
000001c0: 5f36 27bc cea0 72be 9c4c b8bd 156d 52bd
000001d0: d585 2c3e dec3 24bd 1ac2 94bb 6d39 51bd
000001e0: be2c 27be 31a6 823d 1c87 19be 08ce 743d
000001f0: 7994 23be 4bf8 3e3e 69fd adbe 2205 c13b
00000200: 22e9 06bd 1fd1 da3d e68c e3bd c7db c7be
00000210: 73d6 923a 9b21 463e 8985 3dbe b38f bdbe
00000220: cfb2 8bbe 67cc 1d3c 2bcf 843d 0a76 ffbc
00000230: c6d3 cdbc cc91 98be 165b 52be a5f4 933e
00000240: 7c84 05be e755 3c3e 1f85 0bbe a15a b23c
00000250: c8fa 28bd dfc8 5d3e e66d 6ebd b868 70be
00000260: 3ced 56be 7ef6 8a3d 8936 163d 47fc 8e3e
00000270: 6035 023e 82b6 dd3d 7d12 5cbd 78a8 34be
00000280: 3926 39bd 4f44 723d 3782 8e3e 42eb 043e
00000290: 503f 2abe f1fb 883e 3683 613e b2a8 28be
000002a0: 6b76 3dbe c130 06be a253 5fbe 4520 c03d
000002b0: 9222 d3bd 2f49 8d3e da5e a43d b359 e2bd
000002c0: 79c2 29be b355 ec3b 8084 1fbd ff90 56bd
000002d0: f60a 7fbe b240 c93c f4ce 9cbe 6abf 5dbd
000002e0: 9e7d 023e 189f 1d3e c2b8 ea3d 2473 65bd
000002f0: 8558 013e fbac 40be 1ecc 83be 55a4 85bd
00000300: 5895 d03d 1949 15bc 2fc9 913d 9373 debe
00000310: 522b 43be 9c38 003f 9a85 893c f5f6 9dbd
00000320: a568 d4bd 2289 c93c f6b0 be3e a856 c6bb
00000330: ac0b b23d eda3 b6be 5ed2 e33d cc15 723a
00000340: 796a ffbe f257 15be f44c 7ebe 523f 1f3e
00000350: 9ef8 b73e 3df4 6a3e 6d0b ccbc 4fe3 b43e
00000360: dd5b b1be 15ef 0abe 5619 3e3d 2130 49be
00000370: 87ba 32bc d045 42bd 6f92 81bd 4b44 dabb
00000380: 860b 3ebe e1f9 09be 76a1 a2bd cdd7 693e
00000390: 385b bd3e 8d2d 823e f408 05be d974 a9be
000003a0: b056 7dbd 677f 4b3e 51fb 74be 3f8c 9ebe
000003b0: 6353 e9bd 8a59 c33e 5f29 f73c 82a2 09be
000003c0: 6f60 38be a980 e03d 2541 173e 0808 c43e
000003d0: 8550 493d f93c 873e 300f 88be 8b63 9dbe
000003e0: ddcc b43d 66ac a6be 1d0e 1fbe ad8f 123e
000003f0: 02c2 68be d4d1 9cbe e27f 74be bd11 cdbb
0.1351534 0.21352398 -0.15265732 0.001320663 0.20124133 0.18956184 -0.03294203 -0.18083532
-0.2675854 -0.23016028 -0.18235528 0.1752142 0.004628281 -0.3408146 0.30077812 0.26897496
0.030503593 0.21621732 -0.0994787 -0.18285723 -0.29064655 -0.10395204 -0.1929356 -0.07727032
-0.23922302 0.09213841 -0.3535185 -0.026751207 -0.035141688 -0.19304705 0.06305986 0.084496185
-0.13923371 0.047325507 -0.057630133 -0.26180863 -0.11273472 -0.10640581 -0.116694346 0.32698333
-0.062970504 -0.23656522 0.12898523 -0.16643292 -0.1775673 0.07116727 0.07616679 0.11745682
0.4841032 -0.19399482 0.07036623 -0.05947685 -0.25619367 -0.0748339 0.21576287 -0.10384968
-0.28448436 -0.12911834 0.27981022 0.22245175 -0.023560137 -0.15067752 -0.16103314 0.017289095
0.06624638 0.01899262 0.1563487 -0.059055943 0.41712543 -0.098531716 -0.16885114 -0.19310413
0.27386674 -0.21968341 0.08612846 0.09976833 -0.09527198 -0.04924794 0.09518626 -0.13861462
-0.33608583 -0.12081922 -0.05147412 -0.20536117 -0.21980038 -0.32242602 0.2074976 0.0361015
-0.07271445 -0.07670845 -0.079400405 0.59601223 0.20854403 -0.04866814 -0.31428596 0.41907367
-0.2090257 0.041647587 -0.13915569 -0.20218746 -0.16186346 0.25945652 0.1225037 -0.12043491
0.2641064 -0.2548624 0.49853313 -0.054959767 0.16680701 -0.10648768 -0.2651637 0.19020559
-0.010205834 -0.23694155 -0.08998987 -0.05137356 0.16847928 -0.040225856 -0.0045397403 -0.051080156
-0.16325662 0.06379355 -0.14992946 0.0597668 -0.15974607 0.18649404 -0.339824 0.0058905045
-0.032937177 0.10684418 -0.111108586 -0.39034864 0.0011202827 0.19348757 -0.18507971 -0.37023696
-0.27284858 0.009631253 0.06484827 -0.031184215 -0.025125396 -0.29798734 -0.20542559 0.28897586
-0.1303882 0.18392144 -0.13625 0.02177173 -0.04125479 0.21658657 -0.058210276 -0.23477447
-0.20988935 0.06785296 0.036673103 0.27926847 0.12715673 0.10825826 -0.05372857 -0.1764239
-0.045202468 0.059147175 0.2783372 0.12980369 -0.16625714 0.26754716 0.22022709 -0.16470602
-0.18502204 -0.13104536 -0.21809247 0.09381155 -0.10309328 0.27594897 0.08025904 -0.11052265
-0.16578092 0.0072123646 -0.03894472 -0.052384373 -0.24906525 0.024566982 -0.30626643 -0.054137625
0.12743232 0.1539272 0.11461021 -0.05601801 0.12631424 -0.18815987 -0.25741667 -0.065254845
0.10184735 -0.009111666 0.07118451 -0.4344755 -0.19059494 0.5008638 0.016787339 -0.07713119
-0.10371522 0.024601523 0.37244385 -0.0060528107 0.086936325 -0.3567194 0.11124109 0.00092348154
-0.4988592 -0.1458433 -0.24834043 0.15551499 0.35931867 0.22944732 -0.024907792 0.35329673
-0.346404 -0.13567765 0.04641088 -0.19647266 -0.010908729 -0.04742986 -0.06326758 -0.006660973
-0.18559083 -0.13474227 -0.079409525 0.22836228 0.36983657 0.25425377 -0.12991697 -0.3309696
-0.06185025 0.19872819 -0.23923995 -0.30966374 -0.11392858 0.3815425 0.030171094 -0.13440898
-0.18005536 0.1096204 0.14770944 0.38287377 0.049149055 0.26413706 -0.26574087 -0.30740008
0.08828137 -0.32553405 -0.15532728 0.1431262 -0.22730258 -0.30628836 -0.23876908 -0.006258218

network_body._body_endoder.seq_layers.0.bias f4 [128]
00000000: 1ee6 093c 2cff 1ebd 5e4b 4abd f143 d0ba
00000010: c339 54bd e02d 823d 50d8 2bbd 0ff5 e93c
00000020: 8af8 b2bd 3eec 33bc 4089 2d3d 435f 663d
00000030: 6304 593d 6d02 26bd f9b1 cebc 6143 a9bd
00000040: 3db3 a33b f9d1 183d aa85 a53d 60ee 4c3d
00000050: c746 933d c62a e13c 02be 923d 39b4 0d3d
00000060: f737 7b3d 8440 47bd c9cd 6b3d f5af 313d
00000070: 4841 443d f6a9 263d 8add 653d 9844 a5bd
00000080: a6c8 83bd 6e3e d93b 19af 2d3d b21b 333d
00000090: 8e08 d43c d74e 4bbd 258d 41bd c7d3 923d
000000a0: c765 343d c916 a63c 6f1f 053d 3bae 9cbd
000000b0: dc1f 8a3d fdcc 493c 5c3b 423d e34c 8fbd
000000c0: eb54 47bd 4a7c 37bd aaa7 9d3d b9da 6c3d
000000d0: 08d4 e0bc 90df 18bd d4f0 85bd 4c30 353d
000000e0: 06e0 7b3d 7ce7 3ebc 0edf b1bd 879a 163d
000000f0: f666 af3c 33c1 b1bd 2760 90bc cd84 3a3d
00000100: bfaa 143d 3675 5a3d c030 473c 6284 00bd
00000110: 5e50 7abd 3e82 653c 5be3 1a3d c682 f93c
00000120: 2b1f d0bd 8482 323d bf2e a23c 2185 5c3d
00000130: e039 a93d 1fd0 a2bc 52f9 263d 86e4 0d3d
00000140: cfa2 0b3c 1848 93bb 9225 2bbd 44be 66bb
00000150: e784 8b3d 97b4 5a3d 98a6 ac3d 051f 463c
00000160: 36e1 a6bd 1f38 973c 8875 a73c d193 91bc
00000170: 3ca8 2e3d c455 293d 7daa 99bd a40c 753c
00000180: b5a3 033d 091a 92bd ff3f af3c cfe7 663d
00000190: 808d 023c a384 98bc c608 4ebd 9070 183d
000001a0: 8978 6a3d 3167 6abc 1e88 3b3d c247 19bb
000001b0: fa74 843b a9eb 77bd 7acf 30bc f5a8 303d
000001c0: c2dd 993c 2091 46bd a8a2 eabc 3643 88bc
000001d0: 675e ff3b a0bc 38bd 7f2f ac3c 15ed 5d3d
000001e0: 0354 843d 7927 5d3d 5fa5 84bd 7525 dcbc
000001f0: 9b00 103d b2c2 86bc eaca 1f3d e2c5 90bd
0.008416681 -0.03881757 -0.049388282 -0.0015889389 -0.0518129 0.06356406 -0.04195434 0.028559236
-0.08738811 -0.0109816175 0.04236722 0.056243192 0.0529827 -0.040529657 -0.025231348 -0.08264805
0.004995732 0.03730962 0.08082135 0.05003202 0.07191234 0.027486216 0.07165147 0.0345957
0.06133267 -0.04864551 0.0575693 0.043380696 0.04791382 0.04068943 0.05611948 -0.08069724
-0.06434755 0.0066297567 0.042403314 0.043727584 0.025882985 -0.049635734 -0.047253747 0.071692996
0.044042375 0.020274537 0.03250068 -0.07650419 0.06744358 0.012316939 0.04741989 -0.06997087
-0.04866497 -0.044796266 0.07697995 0.057825778 -0.027444854 -0.03732258 -0.06540075 0.044235513
0.061492942 -0.01165187 -0.086851224 0.036768463 0.0214114 -0.08679428 -0.017623974 0.045536805
0.03629565 0.053334437 0.012157619 -0.03137625 -0.0611118 0.014008103 0.03781448 0.030457865
-0.10162195 0.0435815 0.01979768 0.0538379 0.08262992 -0.01987463 0.040765114 0.034641765
0.008522703 -0.004494678 -0.041783877 -0.0035208622 0.068124585 0.05339488 0.08430213 0.012092357
-0.08148424 0.018459378 0.020441785 -0.01777068 0.04264091 0.041341558 -0.07503221 0.014956627
0.032138545 -0.07133872 0.02139282 0.056373414 0.007968307 -0.018617934 -0.050301336 0.037216723
0.057243858 -0.014306829 0.04578411 -0.0023388718 0.004042265 -0.060527477 -0.010791654 0.04312988
0.0187825 -0.048478246 -0.028642014 -0.016633611 0.007793236 -0.04510176 0.021018742 0.054181177
0.064613365 0.053992722 -0.064768545 -0.02687333 0.035156827 -0.01645026 0.039011873 -0.07068993

network_body._body_endoder.seq_layers.2.weight f4 [128, 128]
00000000: 2197 05be d3eb 0fbd e085 1f3e a2fc 883c
00000010: 66ea f7bd d8ec c9bd 8180 993d 3f2f 0bbe
00000020: b7ba 993d 3265 0b3d d212 46be a57d 083e
00000030: ac3c e73d e506 23bd 46e3 233d 707d bf3d
00000040: c686 933c b95a 70bd f1c8 eeb9 6ffa b33d
00000050: 58d3 dbbd 3d98 61bd bbf3 06be 6201 133d
00000060: a4c6 7bbe da51 0b3e 14ea 95bd 20e3 29be
00000070: 1166 d1bd 7a6e a7bd cf8d 30be e814 433d
00000080: 71f6 fa3c b072 163e b319 d4bd 37b5 41bd
00000090: e21e eb3c ebd0 813d f179 89bc 4535 a5bd
000000a0: 7bf5 dcbd 5c28 9e3d 15bf fcbc 3441 f63d
000000b0: 6858 28bd c8ab f53d 8d4b 50be 6a4f bcbb
000000c0: ba24 df3d f79b 193d 0186 15be c7bd 84bd
000000d0: 3143 a73d 5496 383d fb72 203e 8b9f 14be
000000e0: 0e1f f4bc 7a1c 10be d915 923d 8565 0fbe
000000f0: 69af 013e f1fd 233d 7eb5 babd 6c98 f7bc
00000100: 6c20 90bc 817d 6c3d 7a55 173d 7d82 a93b
00000110: cdd8 23be 74bb 543c 597c 9dbd d2bf d1bd
00000120: 64f3 49be 3062 903d 77f5 47bd 7b68 b7bd
00000130: a2e5 173c f244 9dbc c3e4 e23a b6c9 493d
00000140: 6109 45bd e059 be3c 1b82 bbbd 231e f03d
00000150: 96b4 01be 618d 1b3e dc77 efbd b416 123e
00000160: c3a2 c63d 30be f0bd 0ecf 4e3c 5492 d83d
00000170: cd7c c4bd 94d7 143e 7540 0a3d 2345 46bd
00000180: e66d f23d e74e 853d 6301 0fbe 8b1d 313e
00000190: 4cbd debd b9ff f4bd fee1 643e d825 4bbe
000001a0: bbe9 35bd be01 2ebb 985a 9f3c b138 dcbc
000001b0: 1679 1f3d 18d1 373d ab3a ef3d 4184 f93d
000001c0: 2824 a73d c04a c83d fbb9 f43c 52c3 063e
000001d0: 6f54 4fbd 25cf 623c 873b bdbd 82b8 5c3d
000001e0: 9cd7 403d 3223 393d 3199 97bc 38b5 12bc
000001f0: 1b44 a9bd 44e6 a43d c470 ad3c 143e f93d
00000200: d2c1 a93d f91f 0e3c e41e 303d 3f92 de3b
00000210: 1a4e 3bbd 06e7 7abd ad40 39be 2d2e 163d
00000220: 1180 f1bc 2ef6 0f3d 8990 363e ceb9 d43c
00000230: cba4 cc3d 9b11 88bd 2ca7 1c3e df54 9fbd
00000240: 85a1 9c3d 2be8 b83c a66f 8c3d 3b28 7f3c
00000250: d252 fb3d 1279 ed3d 8bd2 233c eb2d 803d
00000260: 304a 8dbd a412 e1bd d625 be3d 1dc1 ca3d
00000270: b741 6d3e 41d5 f43b 899e 433d e831 29be
00000280: ce98 98bd 96d4 c13d ccf9 2e3e fa9f 803d
00000290: f99c 80bd ee20 02bd a861 59be b86e 3e3d
000002a0: 7e5a 2cbe 9b55 703d f067 f13b 47a1 413c
000002b0: 1ffc 193d 9ee7 55be 2a24 aa3d 4ddf 6ebd
000002c0: 2951 12be 3941 d63d 5cdd d23d 01d3 2f3e
000002d0: f1c6 84be 414b 15be d943 50be 9c80 233e
000002e0: 25e7 193e 8982 a3bc 1248 00be fb39 5bbd
000002f0: 8faa 29bd 9102 02bd b6ad a33d 408b 713b
00000300: cb3f 463d 20cd 163e 15e4 8cbc 51d8 8c3d
00000310: 0fc4 5abd b192 3ebd 9339 d5bd f2e6 48bd
00000320: 6ebc 6abd 348a 853d 0295 163e 674a 763e
00000330: e543 98bd c7b4 f3bd 17c9 813e 8c5d 52bc
00000340: 966d 4a3d a027 443d 74e2 c93d c139 1fbe
00000350: 49c6 d53d aff2 d83c acb8 593d fbb7 253e
00000360: 7643 c43d 98d4 38bd 74db 66bc 265d 0fbd
00000370: 23db cebd d51a f83d d306 1bbd 9178 febc
00000380: 0007 923a 1cdd dbbc cecf 9ebc 6b19 a23d
00000390: d739 fcbd 442e 493e 7387 ecbc a932 933c
000003a0: c9b3 0fbe 934f 6e3c 9ba9 f93c 2099 013d
000003b0: 9e47 2bbe da79 e1bc af0a 5a3c 0a6b f93d
000003c0: 71ae 443e 98ed 60bd 6de5 1cbb 9c99 d93c
000003d0: b8e2 bf3c 2936 a03c f3ab c63d 390b ba3d
000003e0: 3bdb 883d 4e44 df3a 1def 6ebd c295 053e
000003f0: 01a7 b33d 89df ef3b 1d3d 113e 22cb c53d
-0.13045932 -0.03513701 0.15578413 0.016722027 -0.12105255 -0.098596275 0.07495213 -0.13592242
0.07506316 0.034032054 -0.19343117 0.1332918 0.11290869 -0.039801497 0.040011667 0.09350097
0.0180086 -0.05868027 -0.0004554461 0.08788001 -0.1073367 -0.055076826 -0.13178913 0.03588999
-0.24587494 0.13605443 -0.073200375 -0.16590548 -0.10224546 -0.081753686 -0.17241596 0.04762736
0.03063509 0.14692187 -0.10356464 -0.04729196 0.02870125 0.06338676 -0.016781779 -0.08066801
-0.10789009 0.07722542 -0.030852834 0.12024155 -0.041099936 0.11995655 -0.2034132 -0.0057467716
0.10895677 0.037502255 -0.146019 -0.0648151 0.081671126 0.04506524 0.15668862 -0.14513986
-0.029799964 -0.14073363 0.07133073 -0.1400357 0.1266457 0.0400371 -0.09116648 -0.030224048
-0.017593585 0.057736877 0.03694675 0.005173026 -0.16000672 0.012984145 -0.07689733 -0.10241665
-0.19721752 0.07049978 -0.048818078 -0.08955475 0.009271057 -0.019197915 0.0017310608 0.049264632
-0.048104648 0.023236215 -0.09155675 0.11724498 -0.12666544 0.1519065 -0.11692783 0.14266473
0.09699013 -0.117550254 0.012622608 0.10574785 -0.09594116 0.14535362 0.033752877 -0.048405778
0.11837368 0.0650919 -0.13965373 0.17296426 -0.10875949 -0.11962838 0.22351834 -0.19838655
-0.044412356 -0.0026551331 0.019452378 -0.026882501 0.038933836 0.04487714 0.11681112 0.121834286
0.08161193 0.097798824 0.029873839 0.13160446 -0.05061763 0.013843332 -0.092398696 0.053886898
0.04708062 0.04519958 -0.018505665 -0.008954339 -0.08264943 0.08051732 0.021171935 0.121700436
0.082889214 0.008674615 0.04299821 0.0067923362 -0.04572878 -0.061255477 -0.18091078 0.03666513
-0.029480012 0.035146885 0.17828573 0.025967505 0.09992369 -0.06643983 0.15298146 -0.0777986
0.07647995 0.022571644 0.06857233 0.015573557 0.12271656 0.11595358 0.009998928 0.06258758
-0.06898916 -0.109898835 0.092845604 0.09900115 0.231696 0.007471711 0.047758613 -0.16522944
-0.0745102 0.09464376 0.17087477 0.06280513 -0.0627994 -0.031769685 -0.21228659 0.04649231
-0.16831395 0.05867539 0.0073671266 0.011818237 0.037593957 -0.20889136 0.08307679 -0.058318425
-0.14288773 0.10461659 0.10296127 0.17170335 -0.2593303 -0.14579488 -0.20338382 0.1596703
0.15029581 -0.019959705 -0.12527493 -0.05352209 -0.041422423 -0.03174073 0.07992117 0.003685668
0.04840068 0.14726686 -0.017198602 0.068771966 -0.053409632 -0.046526615 -0.10411372 -0.04904837
-0.057308607 0.06520501 0.1470528 0.2405182 -0.07434825 -0.11899715 0.25348732 -0.012839686
0.049420916 0.04788935 0.09857646 -0.15549375 0.104382105 0.026482908 0.053154632 0.16183464
0.0958318 -0.04512462 -0.014090408 -0.035000943 -0.10100391 0.12114493 -0.037848305 -0.03106335
0.0011141002 -0.026838832 -0.019386198 0.07915004 -0.123157196 0.19646555 -0.028873181 0.017968493
-0.14033426 0.014545339 0.030476382 0.031640172 -0.16726539 -0.027523924 0.013308211 0.12178619
0.19207169 -0.054914087 -0.002394046 0.026562504 0.023423538 0.019557076 0.097007655 0.09084172
0.0668244 0.0017033906 -0.058333505 0.1304541 0.08772088 0.0073203486 0.14183469 0.09657885

network_body._body_endoder.seq_layers.2.bias f4 [128]
00000000: 28f1 bebc 5c7a 483d d9fc 243d 83b5 6c3d
00000010: 2919 3fbd 1859 88bc 3837 83bc 539c 353d
00000020: fe9b 70bc f8d6 423d 6591 853d efb5 333d
00000030: 77f3 4a3d 4f23 5d3c 396d 543c 1c8d ccbc
00000040: 6026 033d b581 193d 7ca8 bc3c c10f afbb
00000050: 2bca ff3c 2ddb 05bb b10d 9fbc 237f bfbb
00000060: f19b 06bd 7e5a 0b3d aa22 dabb 68d5 39bc
00000070: c995 0bbd 2497 c2bc fb70 d83c 270e 83bc
00000080: 27dd e53c a22b 683d e2c9 b738 21f4 363a
00000090: b48c bb3b 045a 93bc 2af1 3b3d daaf fabc
000000a0: 2601 d63c aa0f 10bc ef42 2aba 35b5 c0bc
000000b0: e7d0 953c 61d3 1bbc 394e 21bc 04dc 993d
000000c0: aa0a 073d 99ba 243d 19eb 8fbc 13c9 6c3d
000000d0: 59c4 9abc 36c5 f23c 386c edbc 2c9c 383d
000000e0: 11b1 db3c ea20 403d 8733 223d 5802 513d
000000f0: 7b06 0c3d 3d9b 243d 8ea8 d4bc 4bb0 3cbd
00000100: 3872 313d 9937 1c3d 9875 203d b2ee dc3c
00000110: f33e 1d3a 1f39 103d e955 bcbc 6844 55bc
00000120: 2454 c8bc 0e67 0a3d fe7e 7d3d 3630 1d3d
00000130: 6eb2 4b3d cb72 233d bae3 bb3a 240b 9dbc
00000140: 3f06 23bc 0dc8 6a3d b469 b13c 20f1 e8bc
00000150: 01f7 dc3c ad20 393c 4b96 3d3d 8ce1 37bb
00000160: 3cba 353d 0919 143b f258 c83c 8c28 1d3d
00000170: 624a 8b3c 707a 363c c03e a23c 3c42 053b
00000180: dd45 093d ff74 1d3d f35d 203d b694 ee3a
00000190: 0a0f dc3c 6a26 d4bc 94b7 18bd e912 12bc
000001a0: 83e5 ccbc 598a 913d 0ca4 07bc 11a9 a9bb
000001b0: 414f f3bb c9d9 603d 5108 003d ff77 4d3d
000001c0: 992b 0dbd 62ac ddbc efad 1a3d 238a 7abc
000001d0: c3c9 7f3d f107 7c3c 0d6f e93c 3447 d8bc
000001e0: ca88 cf3c 3157 f83c cf51 803d 21f6 b1bb
000001f0: d97d c6bc 9091 563d 7d8d 1b3d 78f2 77ba
-0.023308352 0.048944816 0.040280197 0.05779029 -0.046654854 -0.016644046 -0.016017541 0.044338536
-0.014685629 0.04756829 0.065218724 0.043874677 0.049548592 0.013497188 0.012965494 -0.02496963
0.03201902 0.037477214 0.023029558 -0.005342454 0.03122433 -0.0020424828 -0.019415708 -0.0058440133
-0.03286356 0.034021847 -0.0066569643 -0.011342384 -0.034078393 -0.02375371 0.02642106 -0.01599796
0.028059555 0.056682236 8.7637236e-05 0.0006979127 0.00572356 -0.017987259 0.04588429 -0.03060143
0.026123594 -0.008792797 -0.0006494959 -0.023523906 0.018288089 -0.009510846 -0.00984531 0.07512668
0.032969154 0.040217016 -0.017568158 0.057808947 -0.018892454 0.029635053 -0.028982267 0.045070812
0.02681783 0.04690639 0.03959992 0.051027626 0.034185868 0.04018711 -0.02595928 -0.046066564
0.043321818 0.03813896 0.039174646 0.026969288 0.0005998455 0.035210725 -0.022990184 -0.013016798
-0.024454184 0.033789687 0.061888687 0.038376056 0.04973071 0.039904397 0.0014334836 -0.019170351
-0.00995022 0.05731969 0.021656848 -0.02843529 0.02697325 0.011299294 0.04628591 -0.002805802
0.04436706 0.002259793 0.024456475 0.038368747 0.017003242 0.01113759 0.019805312 0.0020333668
0.033513892 0.038441654 0.039152097 0.0018202278 0.02686264 -0.025897224 -0.03728445 -0.008915641
-0.025011783 0.07106466 -0.008278858 -0.005177625 -0.0074252193 0.054895196 0.03125793 0.050163265
-0.034465406 -0.027059738 0.037763532 -0.015291723 0.062448274 0.015382753 0.028495336 -0.02640114
0.02533378 0.030315014 0.06265604 -0.005430952 -0.02422993 0.052384913 0.03797673 -0.0009458433

action_model._continuous_distribution.log_sigma f4 [1, 2]
00000000: d5b4 493e 47ba bebc
0.19697888 -0.023282183

action_model._continuous_distribution.mu.weight f4 [2, 128]
00000000: 7b2b 85bd 46d7 b93d 5c4e 5b3d 6efc 4f3d
00000010: bb38 3bbd 1077 a1bd 67d2 b5bd 84e4 783d
00000020: 4dc5 96bd 2394 383d 9984 653d ac5b 423d
00000030: d741 8a3d 7fff e13c d76e 093d 1fcf 5ebd
00000040: 27af 053d b951 303d 61be eb3c 9223 92bd
00000050: a651 0e3d e84d 8cbd fc9c 0cbd e6f9 d13b
00000060: a1f3 95bd f483 d43c 50fc a3bd 99a5 5bbd
00000070: 4f88 b6bd 9a9b 3fbd ec22 073d 6afd 84bd
00000080: 1c02 783d cef5 2e3d fa54 46bd 4c78 38bd
00000090: b0a8 72bc 9440 b0bd 8cd1 5c3d 9c40 adbd
000000a0: 6e32 333d c5df 87bd dbbf 84bc 4d58 aabd
000000b0: 77ad c33c 6aa1 42bd fdb4 95bd 7822 963d
000000c0: a921 4f3d 3c01 aa3d 6091 59bd 352e 9d3d
000000d0: b8e1 95bd 7526 173d 5633 97bd ffcf 1f3d
000000e0: 90bc 2b3d ec09 ba3d 415e 7e3d 2daa 9b3d
000000f0: 580a 0b3d 6fde 1e3d 0a53 a9bd d40c 84bd
00000100: de66 893d b0fc 1f3d 0748 4c3d 53fc 9f3c
00000110: feec 5dbb 5cc1 103d d2a6 70bd 9174 aabd
00000120: ecb8 97bd a6d4 993d 6fda 883d 0cf9 233d
00000130: eb86 713d 7ffc 403d 0fc3 a3bd 42ca 8bbd
00000140: e288 39bd ffea c73d 2f85 e73b 3610 7fbd
00000150: 25d4 533d 1c80 393c c0fc 763d 5774 fcbc
00000160: fccf 623d e4a3 91bc 51bc 633c 5a8d 903d
00000170: d6ac 7d3d bd64 5d3c 5764 283d 8253 623c
00000180: 6026 983c 8f0f 2b3d 8d8a 1a3d 5cff bcba
00000190: 6b0b 5f3d c427 1ebd be80 44bd c4c7 14bd
000001a0: 2717 77bd eafb 8b3d 8eff 49bd dce3 80bd
000001b0: 4d0c 77bd 0fea 273d aab6 8f3d eeaf 313d
000001c0: 483e 4ebd 42ad 97bd f436 633d 575a 51bd
000001d0: dbdf 8b3d c9c2 5b3d f80f fc3c 4fdc 56bd
000001e0: cdba 573d febb f23c 388c 773d 92d5 2fbd
000001f0: db01 7bbd 067f 543d 827b 803d 7c93 573b
00000200: 5608 27bd 135f f7bc 8b71 6e3d f36f 3b3c
00000210: 3f7c 4c3c 3fb5 74bc 8555 4fbd a3ce 5e3d
00000220: 81c7 48bd 5107 bf3c 3197 a73b 6528 093d
00000230: f33e 653c d528 a2bd 3190 97bd 29d2 00bd
00000240: b98d afbd 714f 1a3d 2f03 1b3d 66d7 9fbc
00000250: e6f9 1f3d cf91 37bd d5fd 3a3d f23a 823c
00000260: 83cb 9abc cd05 3d3d 9c10 49bd d421 2abd
00000270: 6d51 e2bb bb6f b4bc 2517 b5bd 80e1 01bc
00000280: 18e3 93bd c127 c23b ab21 6ebd af34 30bd
00000290: 2a36 8e3d b9f6 a53d eb90 f53b 26d1 88bc
000002a0: be75 8dbd 31d9 0cbd bcf9 bb3c 029d fbbc
000002b0: fcdc 383d 775b 90bd e0f6 2b3d ddd9 01bc
000002c0: 5b2b 8bbd d49e e8bd 640e 59bd ad6b 1abd
000002d0: 646f 4fbd 0989 893d 6e68 97bc ece0 a13c
000002e0: 3d09 99bd 50ff c8bd fbcb 6fbd 08f3 9a3c
000002f0: 637c 2a3d 1769 973d 80ee 0abd e245 af3c
00000300: f5b6 8b3d fd22 bb3c 265a 353d 9baa 543d
00000310: fe3a acbd f22b 073d ec41 9d3d f50f 35bd
00000320: c4e4 4eba 23f1 8dbd e25f eabc 511e 773d
00000330: 0b77 34bd c055 4c3d 16fc 0fbd 150a 7a3d
00000340: 10ed 0f3d ddac c63c 62ba bd3d e44e 65bd
00000350: c831 96bd 5f08 c13c 0e3f 2a3d 945b 2abd
00000360: 3534 283d 2a0c 833d 1bcc de3d 8eef b9bd
00000370: 37c4 c9bd bd08 203d c9f2 853d bf03 9ebd
00000380: c5f5 6f3c 0b7c 003d 51d2 1e3d cfbf 193d
00000390: 505a b5bd 38d6 f13c 3331 b0bc b7fe 3f3d
000003a0: 4b5d 31bd e5ff a4bc 7484 97bd fab5 39bd
000003b0: f75f 8dbd 0583 12ba b127 b6bd c97a bcbb
000003c0: 1f6f acbc 7529 013b 1d23 4f3d 335b bebc
000003d0: 6769 88bc 88c7 6dbd 05cd a5bd 4a8b 0bbd
000003e0: db07 89bd 4d4d 0d3d f335 fbbc 5137 f2bc
000003f0: 8ef1 88bc 0fe7 b93b ae14 88bd 1618 c2bd
-0.06502434 0.09074263 0.053541526 0.050777845 -0.0457084 -0.078840375 -0.08878022 0.060764804
-0.07361851 0.04506315 0.056034658 0.047450706 0.06750839 0.02758765 0.03355297 -0.054396745
0.03263774 0.043046687 0.028777303 -0.07135691 0.034745835 -0.06850797 -0.0343294 0.006407964
-0.07321859 0.025941826 -0.08007109 -0.053624723 -0.089127176 -0.046779253 0.03299229 -0.064936474
0.060548887 0.042714886 -0.048420884 -0.0450366 -0.014810726 -0.08606067 0.053910777 -0.08459589
0.043749265 -0.066344775 -0.016204765 -0.08317623 0.023886425 -0.047517218 -0.073099114 0.07330793
0.05056921 0.08301017 -0.053117156 0.07674829 -0.07318443 0.03690191 -0.073828384 0.03901672
0.041927874 0.09083924 0.062101606 0.07600818 0.03394541 0.038786348 -0.082677916 -0.06447759
0.067090735 0.03905934 0.049873378 0.019529497 -0.0033863182 0.035340652 -0.058752842 -0.083230145
-0.07408318 0.075112626 0.06682288 0.04003243 0.05896656 0.0471158 -0.07996189 -0.06825687
-0.045296557 0.09761619 0.0070654373 -0.06227132 0.05171599 0.011322048 0.060299635 -0.030817194
0.05537413 -0.017778344 0.013899879 0.07058211 0.061932407 0.013512787 0.041111317 0.013813855
0.018572986 0.041762885 0.03772979 -0.0014419365 0.05445425 -0.038612142 -0.04797434 -0.036323324
-0.060324814 0.06835158 -0.04931598 -0.06293461 -0.060314465 0.0409947 0.07017262 0.04338067
-0.050352365 -0.07406093 0.05547233 -0.051111545 0.068298064 0.05365256 0.030769333 -0.052456196
0.05266838 0.029630657 0.060436457 -0.042928286 -0.061281066 0.05187895 0.06273557 0.0032894304
-0.040779434 -0.030196702 0.05821375 0.011440265 0.012480794 -0.014935791 -0.050618667 0.054396283
-0.049018387 0.023318918 0.005114459 0.03348579 0.013992059 -0.07917944 -0.07400549 -0.031450424
-0.08571953 0.037673417 0.037844833 -0.01951189 0.03905668 -0.04481679 0.04565223 0.015897248
-0.01889587 0.04614811 -0.049088106 -0.041536167 -0.0069066794 -0.022025933 -0.08842305 -0.007927299
-0.07221049 0.005925149 -0.058137577 -0.043018993 0.06943925 0.08103699 0.007494082 -0.016701292
-0.06907223 -0.034386817 0.022946231 -0.030714516 0.045132622 -0.070486955 0.041983485 -0.007925478
-0.06795379 -0.11358419 -0.05299224 -0.037700344 -0.05064334 0.067155905 -0.018482413 0.019760571
-0.07472465 -0.09814322 -0.05854414 0.018914714 0.04162253 0.07393091 -0.033918858 0.021395627
0.06822006 0.022843832 0.044275425 0.051920515 -0.08409689 0.033000894 0.07678589 -0.04420467
-0.0007892365 -0.06930759 -0.028610174 0.060331646 -0.04405884 0.049886465 -0.035152517 0.06104477
0.03513819 0.02425235 0.09264065 -0.05598344 -0.07333714 0.023563562 0.04156404 -0.041591242
0.041065414 0.063988045 0.10878774 -0.090788946 -0.09851878 0.039070833 0.06540448 -0.07715558
0.014645998 0.031368297 0.038774792 0.03753644 -0.08855116 0.029521093 -0.021507835 0.046873774
-0.04330186 -0.020141551 -0.0739831 -0.045339562 -0.069030695 -0.00055889814 -0.08894289 -0.005751942
-0.02104908 0.0019708548 0.050570596 -0.023236847 -0.016651822 -0.058051616 -0.08095745 -0.034068383
-0.066909514 0.034497548 -0.030665373 -0.029567393 -0.016716745 0.0056732963 -0.06644569 -0.0947725

action_model._continuous_distribution.mu.bias f4 [2]
00000000: f313 483d 46f9 5a3c
0.04884715 0.0133650955
